/home/blherre4/.conda/envs/vivyenv/lib/python3.8/site-packages/fairseq/utils.py:341: UserWarning: amp_C fused kernels unavailable, disabling multi_tensor_l2norm; you may get better performance by installing NVIDIA's apex library
  warnings.warn(
2023-08-19 01:17:33 | INFO | fairseq_cli.train | VIVYNet(
  (encoder): BERTBaseEN(
    (model): BertModel(
      (embeddings): BertEmbeddings(
        (word_embeddings): Embedding(28996, 768, padding_idx=0)
        (position_embeddings): Embedding(512, 768)
        (token_type_embeddings): Embedding(2, 768)
        (LayerNorm): LayerNorm((768,), eps=1e-12, elementwise_affine=True)
        (dropout): Dropout(p=0.1, inplace=False)
      )
      (encoder): BertEncoder(
        (layer): ModuleList(
          (0): BertLayer(
            (attention): BertAttention(
              (self): BertSelfAttention(
                (query): Linear(in_features=768, out_features=768, bias=True)
                (key): Linear(in_features=768, out_features=768, bias=True)
                (value): Linear(in_features=768, out_features=768, bias=True)
                (dropout): Dropout(p=0.1, inplace=False)
              )
              (output): BertSelfOutput(
                (dense): Linear(in_features=768, out_features=768, bias=True)
                (LayerNorm): LayerNorm((768,), eps=1e-12, elementwise_affine=True)
                (dropout): Dropout(p=0.1, inplace=False)
              )
            )
            (intermediate): BertIntermediate(
              (dense): Linear(in_features=768, out_features=3072, bias=True)
              (intermediate_act_fn): GELUActivation()
            )
            (output): BertOutput(
              (dense): Linear(in_features=3072, out_features=768, bias=True)
              (LayerNorm): LayerNorm((768,), eps=1e-12, elementwise_affine=True)
              (dropout): Dropout(p=0.1, inplace=False)
            )
          )
          (1): BertLayer(
            (attention): BertAttention(
              (self): BertSelfAttention(
                (query): Linear(in_features=768, out_features=768, bias=True)
                (key): Linear(in_features=768, out_features=768, bias=True)
                (value): Linear(in_features=768, out_features=768, bias=True)
                (dropout): Dropout(p=0.1, inplace=False)
              )
              (output): BertSelfOutput(
                (dense): Linear(in_features=768, out_features=768, bias=True)
                (LayerNorm): LayerNorm((768,), eps=1e-12, elementwise_affine=True)
                (dropout): Dropout(p=0.1, inplace=False)
              )
            )
            (intermediate): BertIntermediate(
              (dense): Linear(in_features=768, out_features=3072, bias=True)
              (intermediate_act_fn): GELUActivation()
            )
            (output): BertOutput(
              (dense): Linear(in_features=3072, out_features=768, bias=True)
              (LayerNorm): LayerNorm((768,), eps=1e-12, elementwise_affine=True)
              (dropout): Dropout(p=0.1, inplace=False)
            )
          )
          (2): BertLayer(
            (attention): BertAttention(
              (self): BertSelfAttention(
                (query): Linear(in_features=768, out_features=768, bias=True)
                (key): Linear(in_features=768, out_features=768, bias=True)
                (value): Linear(in_features=768, out_features=768, bias=True)
                (dropout): Dropout(p=0.1, inplace=False)
              )
              (output): BertSelfOutput(
                (dense): Linear(in_features=768, out_features=768, bias=True)
                (LayerNorm): LayerNorm((768,), eps=1e-12, elementwise_affine=True)
                (dropout): Dropout(p=0.1, inplace=False)
              )
            )
            (intermediate): BertIntermediate(
              (dense): Linear(in_features=768, out_features=3072, bias=True)
              (intermediate_act_fn): GELUActivation()
            )
            (output): BertOutput(
              (dense): Linear(in_features=3072, out_features=768, bias=True)
              (LayerNorm): LayerNorm((768,), eps=1e-12, elementwise_affine=True)
              (dropout): Dropout(p=0.1, inplace=False)
            )
          )
          (3): BertLayer(
            (attention): BertAttention(
              (self): BertSelfAttention(
                (query): Linear(in_features=768, out_features=768, bias=True)
                (key): Linear(in_features=768, out_features=768, bias=True)
                (value): Linear(in_features=768, out_features=768, bias=True)
                (dropout): Dropout(p=0.1, inplace=False)
              )
              (output): BertSelfOutput(
                (dense): Linear(in_features=768, out_features=768, bias=True)
                (LayerNorm): LayerNorm((768,), eps=1e-12, elementwise_affine=True)
                (dropout): Dropout(p=0.1, inplace=False)
              )
            )
            (intermediate): BertIntermediate(
              (dense): Linear(in_features=768, out_features=3072, bias=True)
              (intermediate_act_fn): GELUActivation()
            )
            (output): BertOutput(
              (dense): Linear(in_features=3072, out_features=768, bias=True)
              (LayerNorm): LayerNorm((768,), eps=1e-12, elementwise_affine=True)
              (dropout): Dropout(p=0.1, inplace=False)
            )
          )
          (4): BertLayer(
            (attention): BertAttention(
              (self): BertSelfAttention(
                (query): Linear(in_features=768, out_features=768, bias=True)
                (key): Linear(in_features=768, out_features=768, bias=True)
                (value): Linear(in_features=768, out_features=768, bias=True)
                (dropout): Dropout(p=0.1, inplace=False)
              )
              (output): BertSelfOutput(
                (dense): Linear(in_features=768, out_features=768, bias=True)
                (LayerNorm): LayerNorm((768,), eps=1e-12, elementwise_affine=True)
                (dropout): Dropout(p=0.1, inplace=False)
              )
            )
            (intermediate): BertIntermediate(
              (dense): Linear(in_features=768, out_features=3072, bias=True)
              (intermediate_act_fn): GELUActivation()
            )
            (output): BertOutput(
              (dense): Linear(in_features=3072, out_features=768, bias=True)
              (LayerNorm): LayerNorm((768,), eps=1e-12, elementwise_affine=True)
              (dropout): Dropout(p=0.1, inplace=False)
            )
          )
          (5): BertLayer(
            (attention): BertAttention(
              (self): BertSelfAttention(
                (query): Linear(in_features=768, out_features=768, bias=True)
                (key): Linear(in_features=768, out_features=768, bias=True)
                (value): Linear(in_features=768, out_features=768, bias=True)
                (dropout): Dropout(p=0.1, inplace=False)
              )
              (output): BertSelfOutput(
                (dense): Linear(in_features=768, out_features=768, bias=True)
                (LayerNorm): LayerNorm((768,), eps=1e-12, elementwise_affine=True)
                (dropout): Dropout(p=0.1, inplace=False)
              )
            )
            (intermediate): BertIntermediate(
              (dense): Linear(in_features=768, out_features=3072, bias=True)
              (intermediate_act_fn): GELUActivation()
            )
            (output): BertOutput(
              (dense): Linear(in_features=3072, out_features=768, bias=True)
              (LayerNorm): LayerNorm((768,), eps=1e-12, elementwise_affine=True)
              (dropout): Dropout(p=0.1, inplace=False)
            )
          )
          (6): BertLayer(
            (attention): BertAttention(
              (self): BertSelfAttention(
                (query): Linear(in_features=768, out_features=768, bias=True)
                (key): Linear(in_features=768, out_features=768, bias=True)
                (value): Linear(in_features=768, out_features=768, bias=True)
                (dropout): Dropout(p=0.1, inplace=False)
              )
              (output): BertSelfOutput(
                (dense): Linear(in_features=768, out_features=768, bias=True)
                (LayerNorm): LayerNorm((768,), eps=1e-12, elementwise_affine=True)
                (dropout): Dropout(p=0.1, inplace=False)
              )
            )
            (intermediate): BertIntermediate(
              (dense): Linear(in_features=768, out_features=3072, bias=True)
              (intermediate_act_fn): GELUActivation()
            )
            (output): BertOutput(
              (dense): Linear(in_features=3072, out_features=768, bias=True)
              (LayerNorm): LayerNorm((768,), eps=1e-12, elementwise_affine=True)
              (dropout): Dropout(p=0.1, inplace=False)
            )
          )
          (7): BertLayer(
            (attention): BertAttention(
              (self): BertSelfAttention(
                (query): Linear(in_features=768, out_features=768, bias=True)
                (key): Linear(in_features=768, out_features=768, bias=True)
                (value): Linear(in_features=768, out_features=768, bias=True)
                (dropout): Dropout(p=0.1, inplace=False)
              )
              (output): BertSelfOutput(
                (dense): Linear(in_features=768, out_features=768, bias=True)
                (LayerNorm): LayerNorm((768,), eps=1e-12, elementwise_affine=True)
                (dropout): Dropout(p=0.1, inplace=False)
              )
            )
            (intermediate): BertIntermediate(
              (dense): Linear(in_features=768, out_features=3072, bias=True)
              (intermediate_act_fn): GELUActivation()
            )
            (output): BertOutput(
              (dense): Linear(in_features=3072, out_features=768, bias=True)
              (LayerNorm): LayerNorm((768,), eps=1e-12, elementwise_affine=True)
              (dropout): Dropout(p=0.1, inplace=False)
            )
          )
          (8): BertLayer(
            (attention): BertAttention(
              (self): BertSelfAttention(
                (query): Linear(in_features=768, out_features=768, bias=True)
                (key): Linear(in_features=768, out_features=768, bias=True)
                (value): Linear(in_features=768, out_features=768, bias=True)
                (dropout): Dropout(p=0.1, inplace=False)
              )
              (output): BertSelfOutput(
                (dense): Linear(in_features=768, out_features=768, bias=True)
                (LayerNorm): LayerNorm((768,), eps=1e-12, elementwise_affine=True)
                (dropout): Dropout(p=0.1, inplace=False)
              )
            )
            (intermediate): BertIntermediate(
              (dense): Linear(in_features=768, out_features=3072, bias=True)
              (intermediate_act_fn): GELUActivation()
            )
            (output): BertOutput(
              (dense): Linear(in_features=3072, out_features=768, bias=True)
              (LayerNorm): LayerNorm((768,), eps=1e-12, elementwise_affine=True)
              (dropout): Dropout(p=0.1, inplace=False)
            )
          )
          (9): BertLayer(
            (attention): BertAttention(
              (self): BertSelfAttention(
                (query): Linear(in_features=768, out_features=768, bias=True)
                (key): Linear(in_features=768, out_features=768, bias=True)
                (value): Linear(in_features=768, out_features=768, bias=True)
                (dropout): Dropout(p=0.1, inplace=False)
              )
              (output): BertSelfOutput(
                (dense): Linear(in_features=768, out_features=768, bias=True)
                (LayerNorm): LayerNorm((768,), eps=1e-12, elementwise_affine=True)
                (dropout): Dropout(p=0.1, inplace=False)
              )
            )
            (intermediate): BertIntermediate(
              (dense): Linear(in_features=768, out_features=3072, bias=True)
              (intermediate_act_fn): GELUActivation()
            )
            (output): BertOutput(
              (dense): Linear(in_features=3072, out_features=768, bias=True)
              (LayerNorm): LayerNorm((768,), eps=1e-12, elementwise_affine=True)
              (dropout): Dropout(p=0.1, inplace=False)
            )
          )
          (10): BertLayer(
            (attention): BertAttention(
              (self): BertSelfAttention(
                (query): Linear(in_features=768, out_features=768, bias=True)
                (key): Linear(in_features=768, out_features=768, bias=True)
                (value): Linear(in_features=768, out_features=768, bias=True)
                (dropout): Dropout(p=0.1, inplace=False)
              )
              (output): BertSelfOutput(
                (dense): Linear(in_features=768, out_features=768, bias=True)
                (LayerNorm): LayerNorm((768,), eps=1e-12, elementwise_affine=True)
                (dropout): Dropout(p=0.1, inplace=False)
              )
            )
            (intermediate): BertIntermediate(
              (dense): Linear(in_features=768, out_features=3072, bias=True)
              (intermediate_act_fn): GELUActivation()
            )
            (output): BertOutput(
              (dense): Linear(in_features=3072, out_features=768, bias=True)
              (LayerNorm): LayerNorm((768,), eps=1e-12, elementwise_affine=True)
              (dropout): Dropout(p=0.1, inplace=False)
            )
          )
          (11): BertLayer(
            (attention): BertAttention(
              (self): BertSelfAttention(
                (query): Linear(in_features=768, out_features=768, bias=True)
                (key): Linear(in_features=768, out_features=768, bias=True)
                (value): Linear(in_features=768, out_features=768, bias=True)
                (dropout): Dropout(p=0.1, inplace=False)
              )
              (output): BertSelfOutput(
                (dense): Linear(in_features=768, out_features=768, bias=True)
                (LayerNorm): LayerNorm((768,), eps=1e-12, elementwise_affine=True)
                (dropout): Dropout(p=0.1, inplace=False)
              )
            )
            (intermediate): BertIntermediate(
              (dense): Linear(in_features=768, out_features=3072, bias=True)
              (intermediate_act_fn): GELUActivation()
            )
            (output): BertOutput(
              (dense): Linear(in_features=3072, out_features=768, bias=True)
              (LayerNorm): LayerNorm((768,), eps=1e-12, elementwise_affine=True)
              (dropout): Dropout(p=0.1, inplace=False)
            )
          )
        )
      )
      (pooler): BertPooler(
        (dense): Linear(in_features=768, out_features=768, bias=True)
        (activation): Tanh()
      )
    )
  )
  (decoder): SymphonyNetVanilla(
    (wEvte): Embedding(1125, 512)
    (wTrke): Embedding(44, 512)
    (wDure): Embedding(36, 512)
    (wRpe): Embedding(199, 512)
    (wMpe): Embedding(5361, 512)
    (drop): Dropout(p=0.1, inplace=False)
    (ln_f): LayerNorm((512,), eps=1e-06, elementwise_affine=True)
    (decoder_model): TransformerDecoder(
      (layers): ModuleList(
        (0): TransformerDecoderLayer(
          (self_attention): AttentionLayer(
            (inner_attention): CausalLinearAttention(
              (feature_map): ActivationFunctionFeatureMap()
            )
            (query_projection): Linear(in_features=512, out_features=512, bias=True)
            (key_projection): Linear(in_features=512, out_features=512, bias=True)
            (value_projection): Linear(in_features=512, out_features=512, bias=True)
            (out_projection): Linear(in_features=512, out_features=512, bias=True)
          )
          (cross_attention): AttentionLayer(
            (inner_attention): FullAttention(
              (dropout): Dropout(p=0.1, inplace=False)
            )
            (query_projection): Linear(in_features=512, out_features=512, bias=True)
            (key_projection): Linear(in_features=512, out_features=512, bias=True)
            (value_projection): Linear(in_features=512, out_features=512, bias=True)
            (out_projection): Linear(in_features=512, out_features=512, bias=True)
          )
          (linear1): Linear(in_features=512, out_features=2048, bias=True)
          (linear2): Linear(in_features=2048, out_features=512, bias=True)
          (norm1): LayerNorm((512,), eps=1e-05, elementwise_affine=True)
          (norm2): LayerNorm((512,), eps=1e-05, elementwise_affine=True)
          (norm3): LayerNorm((512,), eps=1e-05, elementwise_affine=True)
          (dropout): Dropout(p=0.1, inplace=False)
        )
        (1): TransformerDecoderLayer(
          (self_attention): AttentionLayer(
            (inner_attention): CausalLinearAttention(
              (feature_map): ActivationFunctionFeatureMap()
            )
            (query_projection): Linear(in_features=512, out_features=512, bias=True)
            (key_projection): Linear(in_features=512, out_features=512, bias=True)
            (value_projection): Linear(in_features=512, out_features=512, bias=True)
            (out_projection): Linear(in_features=512, out_features=512, bias=True)
          )
          (cross_attention): AttentionLayer(
            (inner_attention): FullAttention(
              (dropout): Dropout(p=0.1, inplace=False)
            )
            (query_projection): Linear(in_features=512, out_features=512, bias=True)
            (key_projection): Linear(in_features=512, out_features=512, bias=True)
            (value_projection): Linear(in_features=512, out_features=512, bias=True)
            (out_projection): Linear(in_features=512, out_features=512, bias=True)
          )
          (linear1): Linear(in_features=512, out_features=2048, bias=True)
          (linear2): Linear(in_features=2048, out_features=512, bias=True)
          (norm1): LayerNorm((512,), eps=1e-05, elementwise_affine=True)
          (norm2): LayerNorm((512,), eps=1e-05, elementwise_affine=True)
          (norm3): LayerNorm((512,), eps=1e-05, elementwise_affine=True)
          (dropout): Dropout(p=0.1, inplace=False)
        )
        (2): TransformerDecoderLayer(
          (self_attention): AttentionLayer(
            (inner_attention): CausalLinearAttention(
              (feature_map): ActivationFunctionFeatureMap()
            )
            (query_projection): Linear(in_features=512, out_features=512, bias=True)
            (key_projection): Linear(in_features=512, out_features=512, bias=True)
            (value_projection): Linear(in_features=512, out_features=512, bias=True)
            (out_projection): Linear(in_features=512, out_features=512, bias=True)
          )
          (cross_attention): AttentionLayer(
            (inner_attention): FullAttention(
              (dropout): Dropout(p=0.1, inplace=False)
            )
            (query_projection): Linear(in_features=512, out_features=512, bias=True)
            (key_projection): Linear(in_features=512, out_features=512, bias=True)
            (value_projection): Linear(in_features=512, out_features=512, bias=True)
            (out_projection): Linear(in_features=512, out_features=512, bias=True)
          )
          (linear1): Linear(in_features=512, out_features=2048, bias=True)
          (linear2): Linear(in_features=2048, out_features=512, bias=True)
          (norm1): LayerNorm((512,), eps=1e-05, elementwise_affine=True)
          (norm2): LayerNorm((512,), eps=1e-05, elementwise_affine=True)
          (norm3): LayerNorm((512,), eps=1e-05, elementwise_affine=True)
          (dropout): Dropout(p=0.1, inplace=False)
        )
        (3): TransformerDecoderLayer(
          (self_attention): AttentionLayer(
            (inner_attention): CausalLinearAttention(
              (feature_map): ActivationFunctionFeatureMap()
            )
            (query_projection): Linear(in_features=512, out_features=512, bias=True)
            (key_projection): Linear(in_features=512, out_features=512, bias=True)
            (value_projection): Linear(in_features=512, out_features=512, bias=True)
            (out_projection): Linear(in_features=512, out_features=512, bias=True)
          )
          (cross_attention): AttentionLayer(
            (inner_attention): FullAttention(
              (dropout): Dropout(p=0.1, inplace=False)
            )
            (query_projection): Linear(in_features=512, out_features=512, bias=True)
            (key_projection): Linear(in_features=512, out_features=512, bias=True)
            (value_projection): Linear(in_features=512, out_features=512, bias=True)
            (out_projection): Linear(in_features=512, out_features=512, bias=True)
          )
          (linear1): Linear(in_features=512, out_features=2048, bias=True)
          (linear2): Linear(in_features=2048, out_features=512, bias=True)
          (norm1): LayerNorm((512,), eps=1e-05, elementwise_affine=True)
          (norm2): LayerNorm((512,), eps=1e-05, elementwise_affine=True)
          (norm3): LayerNorm((512,), eps=1e-05, elementwise_affine=True)
          (dropout): Dropout(p=0.1, inplace=False)
        )
        (4): TransformerDecoderLayer(
          (self_attention): AttentionLayer(
            (inner_attention): CausalLinearAttention(
              (feature_map): ActivationFunctionFeatureMap()
            )
            (query_projection): Linear(in_features=512, out_features=512, bias=True)
            (key_projection): Linear(in_features=512, out_features=512, bias=True)
            (value_projection): Linear(in_features=512, out_features=512, bias=True)
            (out_projection): Linear(in_features=512, out_features=512, bias=True)
          )
          (cross_attention): AttentionLayer(
            (inner_attention): FullAttention(
              (dropout): Dropout(p=0.1, inplace=False)
            )
            (query_projection): Linear(in_features=512, out_features=512, bias=True)
            (key_projection): Linear(in_features=512, out_features=512, bias=True)
            (value_projection): Linear(in_features=512, out_features=512, bias=True)
            (out_projection): Linear(in_features=512, out_features=512, bias=True)
          )
          (linear1): Linear(in_features=512, out_features=2048, bias=True)
          (linear2): Linear(in_features=2048, out_features=512, bias=True)
          (norm1): LayerNorm((512,), eps=1e-05, elementwise_affine=True)
          (norm2): LayerNorm((512,), eps=1e-05, elementwise_affine=True)
          (norm3): LayerNorm((512,), eps=1e-05, elementwise_affine=True)
          (dropout): Dropout(p=0.1, inplace=False)
        )
        (5): TransformerDecoderLayer(
          (self_attention): AttentionLayer(
            (inner_attention): CausalLinearAttention(
              (feature_map): ActivationFunctionFeatureMap()
            )
            (query_projection): Linear(in_features=512, out_features=512, bias=True)
            (key_projection): Linear(in_features=512, out_features=512, bias=True)
            (value_projection): Linear(in_features=512, out_features=512, bias=True)
            (out_projection): Linear(in_features=512, out_features=512, bias=True)
          )
          (cross_attention): AttentionLayer(
            (inner_attention): FullAttention(
              (dropout): Dropout(p=0.1, inplace=False)
            )
            (query_projection): Linear(in_features=512, out_features=512, bias=True)
            (key_projection): Linear(in_features=512, out_features=512, bias=True)
            (value_projection): Linear(in_features=512, out_features=512, bias=True)
            (out_projection): Linear(in_features=512, out_features=512, bias=True)
          )
          (linear1): Linear(in_features=512, out_features=2048, bias=True)
          (linear2): Linear(in_features=2048, out_features=512, bias=True)
          (norm1): LayerNorm((512,), eps=1e-05, elementwise_affine=True)
          (norm2): LayerNorm((512,), eps=1e-05, elementwise_affine=True)
          (norm3): LayerNorm((512,), eps=1e-05, elementwise_affine=True)
          (dropout): Dropout(p=0.1, inplace=False)
        )
        (6): TransformerDecoderLayer(
          (self_attention): AttentionLayer(
            (inner_attention): CausalLinearAttention(
              (feature_map): ActivationFunctionFeatureMap()
            )
            (query_projection): Linear(in_features=512, out_features=512, bias=True)
            (key_projection): Linear(in_features=512, out_features=512, bias=True)
            (value_projection): Linear(in_features=512, out_features=512, bias=True)
            (out_projection): Linear(in_features=512, out_features=512, bias=True)
          )
          (cross_attention): AttentionLayer(
            (inner_attention): FullAttention(
              (dropout): Dropout(p=0.1, inplace=False)
            )
            (query_projection): Linear(in_features=512, out_features=512, bias=True)
            (key_projection): Linear(in_features=512, out_features=512, bias=True)
            (value_projection): Linear(in_features=512, out_features=512, bias=True)
            (out_projection): Linear(in_features=512, out_features=512, bias=True)
          )
          (linear1): Linear(in_features=512, out_features=2048, bias=True)
          (linear2): Linear(in_features=2048, out_features=512, bias=True)
          (norm1): LayerNorm((512,), eps=1e-05, elementwise_affine=True)
          (norm2): LayerNorm((512,), eps=1e-05, elementwise_affine=True)
          (norm3): LayerNorm((512,), eps=1e-05, elementwise_affine=True)
          (dropout): Dropout(p=0.1, inplace=False)
        )
        (7): TransformerDecoderLayer(
          (self_attention): AttentionLayer(
            (inner_attention): CausalLinearAttention(
              (feature_map): ActivationFunctionFeatureMap()
            )
            (query_projection): Linear(in_features=512, out_features=512, bias=True)
            (key_projection): Linear(in_features=512, out_features=512, bias=True)
            (value_projection): Linear(in_features=512, out_features=512, bias=True)
            (out_projection): Linear(in_features=512, out_features=512, bias=True)
          )
          (cross_attention): AttentionLayer(
            (inner_attention): FullAttention(
              (dropout): Dropout(p=0.1, inplace=False)
            )
            (query_projection): Linear(in_features=512, out_features=512, bias=True)
            (key_projection): Linear(in_features=512, out_features=512, bias=True)
            (value_projection): Linear(in_features=512, out_features=512, bias=True)
            (out_projection): Linear(in_features=512, out_features=512, bias=True)
          )
          (linear1): Linear(in_features=512, out_features=2048, bias=True)
          (linear2): Linear(in_features=2048, out_features=512, bias=True)
          (norm1): LayerNorm((512,), eps=1e-05, elementwise_affine=True)
          (norm2): LayerNorm((512,), eps=1e-05, elementwise_affine=True)
          (norm3): LayerNorm((512,), eps=1e-05, elementwise_affine=True)
          (dropout): Dropout(p=0.1, inplace=False)
        )
        (8): TransformerDecoderLayer(
          (self_attention): AttentionLayer(
            (inner_attention): CausalLinearAttention(
              (feature_map): ActivationFunctionFeatureMap()
            )
            (query_projection): Linear(in_features=512, out_features=512, bias=True)
            (key_projection): Linear(in_features=512, out_features=512, bias=True)
            (value_projection): Linear(in_features=512, out_features=512, bias=True)
            (out_projection): Linear(in_features=512, out_features=512, bias=True)
          )
          (cross_attention): AttentionLayer(
            (inner_attention): FullAttention(
              (dropout): Dropout(p=0.1, inplace=False)
            )
            (query_projection): Linear(in_features=512, out_features=512, bias=True)
            (key_projection): Linear(in_features=512, out_features=512, bias=True)
            (value_projection): Linear(in_features=512, out_features=512, bias=True)
            (out_projection): Linear(in_features=512, out_features=512, bias=True)
          )
          (linear1): Linear(in_features=512, out_features=2048, bias=True)
          (linear2): Linear(in_features=2048, out_features=512, bias=True)
          (norm1): LayerNorm((512,), eps=1e-05, elementwise_affine=True)
          (norm2): LayerNorm((512,), eps=1e-05, elementwise_affine=True)
          (norm3): LayerNorm((512,), eps=1e-05, elementwise_affine=True)
          (dropout): Dropout(p=0.1, inplace=False)
        )
        (9): TransformerDecoderLayer(
          (self_attention): AttentionLayer(
            (inner_attention): CausalLinearAttention(
              (feature_map): ActivationFunctionFeatureMap()
            )
            (query_projection): Linear(in_features=512, out_features=512, bias=True)
            (key_projection): Linear(in_features=512, out_features=512, bias=True)
            (value_projection): Linear(in_features=512, out_features=512, bias=True)
            (out_projection): Linear(in_features=512, out_features=512, bias=True)
          )
          (cross_attention): AttentionLayer(
            (inner_attention): FullAttention(
              (dropout): Dropout(p=0.1, inplace=False)
            )
            (query_projection): Linear(in_features=512, out_features=512, bias=True)
            (key_projection): Linear(in_features=512, out_features=512, bias=True)
            (value_projection): Linear(in_features=512, out_features=512, bias=True)
            (out_projection): Linear(in_features=512, out_features=512, bias=True)
          )
          (linear1): Linear(in_features=512, out_features=2048, bias=True)
          (linear2): Linear(in_features=2048, out_features=512, bias=True)
          (norm1): LayerNorm((512,), eps=1e-05, elementwise_affine=True)
          (norm2): LayerNorm((512,), eps=1e-05, elementwise_affine=True)
          (norm3): LayerNorm((512,), eps=1e-05, elementwise_affine=True)
          (dropout): Dropout(p=0.1, inplace=False)
        )
        (10): TransformerDecoderLayer(
          (self_attention): AttentionLayer(
            (inner_attention): CausalLinearAttention(
              (feature_map): ActivationFunctionFeatureMap()
            )
            (query_projection): Linear(in_features=512, out_features=512, bias=True)
            (key_projection): Linear(in_features=512, out_features=512, bias=True)
            (value_projection): Linear(in_features=512, out_features=512, bias=True)
            (out_projection): Linear(in_features=512, out_features=512, bias=True)
          )
          (cross_attention): AttentionLayer(
            (inner_attention): FullAttention(
              (dropout): Dropout(p=0.1, inplace=False)
            )
            (query_projection): Linear(in_features=512, out_features=512, bias=True)
            (key_projection): Linear(in_features=512, out_features=512, bias=True)
            (value_projection): Linear(in_features=512, out_features=512, bias=True)
            (out_projection): Linear(in_features=512, out_features=512, bias=True)
          )
          (linear1): Linear(in_features=512, out_features=2048, bias=True)
          (linear2): Linear(in_features=2048, out_features=512, bias=True)
          (norm1): LayerNorm((512,), eps=1e-05, elementwise_affine=True)
          (norm2): LayerNorm((512,), eps=1e-05, elementwise_affine=True)
          (norm3): LayerNorm((512,), eps=1e-05, elementwise_affine=True)
          (dropout): Dropout(p=0.1, inplace=False)
        )
        (11): TransformerDecoderLayer(
          (self_attention): AttentionLayer(
            (inner_attention): CausalLinearAttention(
              (feature_map): ActivationFunctionFeatureMap()
            )
            (query_projection): Linear(in_features=512, out_features=512, bias=True)
            (key_projection): Linear(in_features=512, out_features=512, bias=True)
            (value_projection): Linear(in_features=512, out_features=512, bias=True)
            (out_projection): Linear(in_features=512, out_features=512, bias=True)
          )
          (cross_attention): AttentionLayer(
            (inner_attention): FullAttention(
              (dropout): Dropout(p=0.1, inplace=False)
            )
            (query_projection): Linear(in_features=512, out_features=512, bias=True)
            (key_projection): Linear(in_features=512, out_features=512, bias=True)
            (value_projection): Linear(in_features=512, out_features=512, bias=True)
            (out_projection): Linear(in_features=512, out_features=512, bias=True)
          )
          (linear1): Linear(in_features=512, out_features=2048, bias=True)
          (linear2): Linear(in_features=2048, out_features=512, bias=True)
          (norm1): LayerNorm((512,), eps=1e-05, elementwise_affine=True)
          (norm2): LayerNorm((512,), eps=1e-05, elementwise_affine=True)
          (norm3): LayerNorm((512,), eps=1e-05, elementwise_affine=True)
          (dropout): Dropout(p=0.1, inplace=False)
        )
      )
      (norm): LayerNorm((512,), eps=1e-05, elementwise_affine=True)
    )
    (proj_evt): Linear(in_features=512, out_features=1125, bias=False)
    (proj_dur): Linear(in_features=512, out_features=36, bias=False)
    (proj_trk): Linear(in_features=512, out_features=44, bias=False)
    (proj_ins): Linear(in_features=512, out_features=133, bias=False)
  )
  (intermediary): IntermediarySection(
    (linear_layers): Sequential(
      (0): Linear(in_features=768, out_features=768, bias=True)
      (1): LayerNorm((768,), eps=1e-05, elementwise_affine=True)
      (2): Dropout(p=0.25, inplace=False)
      (3): ReLU()
      (4): Linear(in_features=768, out_features=512, bias=True)
      (5): LayerNorm((512,), eps=1e-05, elementwise_affine=True)
      (6): Dropout(p=0.25, inplace=False)
      (7): ReLU()
      (8): Linear(in_features=512, out_features=512, bias=True)
      (9): LayerNorm((512,), eps=1e-05, elementwise_affine=True)
      (10): Dropout(p=0.25, inplace=False)
      (11): ReLU()
    )
  )
)
2023-08-19 01:17:33 | INFO | fairseq_cli.train | task: text2music (VIVYData)
2023-08-19 01:17:33 | INFO | fairseq_cli.train | model: vivy_transformer (VIVYNet)
2023-08-19 01:17:33 | INFO | fairseq_cli.train | criterion: nll_loss (ModelCriterion)
2023-08-19 01:17:33 | INFO | fairseq_cli.train | num. model params: 164160000 (num. trained: 55849728)
…
