…
t='valid', validate_after_updates=0, validate_interval=1, validate_interval_updates=0, warmup_updates=0, weight_decay=0.0, zero_sharding='none')
| [input] dictionary: 16312 types
| [label] dictionary: 380 types
2023-06-27 18:46:21 | INFO | fairseq.data.data_utils | loaded 2084234 examples from: ../data/final/labels/bin/valid
2023-06-27 18:46:22 | INFO | fairseq.data.data_utils | loaded 26788 examples from: ../data/final/features/valid
2023-06-27 18:47:23 | INFO | fairseq_cli.train | VIVYNet(
  (encoder): BERT(
    (model): BertModel(
      (embeddings): BertEmbeddings(
        (word_embeddings): Embedding(119547, 768, padding_idx=0)
        (position_embeddings): Embedding(512, 768)
        (token_type_embeddings): Embedding(2, 768)
        (LayerNorm): LayerNorm((768,), eps=1e-12, elementwise_affine=True)
        (dropout): Dropout(p=0.1, inplace=False)
      )
      (encoder): BertEncoder(
        (layer): ModuleList(
          (0): BertLayer(
            (attention): BertAttention(
              (self): BertSelfAttention(
                (query): Linear(in_features=768, out_features=768, bias=True)
                (key): Linear(in_features=768, out_features=768, bias=True)
                (value): Linear(in_features=768, out_features=768, bias=True)
                (dropout): Dropout(p=0.1, inplace=False)
              )
              (output): BertSelfOutput(
                (dense): Linear(in_features=768, out_features=768, bias=True)
                (LayerNorm): LayerNorm((768,), eps=1e-12, elementwise_affine=True)
                (dropout): Dropout(p=0.1, inplace=False)
              )
            )
            (intermediate): BertIntermediate(
              (dense): Linear(in_features=768, out_features=3072, bias=True)
              (intermediate_act_fn): GELUActivation()
            )
            (output): BertOutput(
              (dense): Linear(in_features=3072, out_features=768, bias=True)
              (LayerNorm): LayerNorm((768,), eps=1e-12, elementwise_affine=True)
              (dropout): Dropout(p=0.1, inplace=False)
            )
          )
          (1): BertLayer(
            (attention): BertAttention(
              (self): BertSelfAttention(
                (query): Linear(in_features=768, out_features=768, bias=True)
                (key): Linear(in_features=768, out_features=768, bias=True)
                (value): Linear(in_features=768, out_features=768, bias=True)
                (dropout): Dropout(p=0.1, inplace=False)
              )
              (output): BertSelfOutput(
                (dense): Linear(in_features=768, out_features=768, bias=True)
                (LayerNorm): LayerNorm((768,), eps=1e-12, elementwise_affine=True)
                (dropout): Dropout(p=0.1, inplace=False)
              )
            )
            (intermediate): BertIntermediate(
              (dense): Linear(in_features=768, out_features=3072, bias=True)
              (intermediate_act_fn): GELUActivation()
            )
            (output): BertOutput(
              (dense): Linear(in_features=3072, out_features=768, bias=True)
              (LayerNorm): LayerNorm((768,), eps=1e-12, elementwise_affine=True)
              (dropout): Dropout(p=0.1, inplace=False)
            )
          )
          (2): BertLayer(
            (attention): BertAttention(
              (self): BertSelfAttention(
                (query): Linear(in_features=768, out_features=768, bias=True)
                (key): Linear(in_features=768, out_features=768, bias=True)
                (value): Linear(in_features=768, out_features=768, bias=True)
                (dropout): Dropout(p=0.1, inplace=False)
              )
              (output): BertSelfOutput(
                (dense): Linear(in_features=768, out_features=768, bias=True)
                (LayerNorm): LayerNorm((768,), eps=1e-12, elementwise_affine=True)
                (dropout): Dropout(p=0.1, inplace=False)
              )
            )
            (intermediate): BertIntermediate(
              (dense): Linear(in_features=768, out_features=3072, bias=True)
              (intermediate_act_fn): GELUActivation()
            )
            (output): BertOutput(
              (dense): Linear(in_features=3072, out_features=768, bias=True)
              (LayerNorm): LayerNorm((768,), eps=1e-12, elementwise_affine=True)
              (dropout): Dropout(p=0.1, inplace=False)
            )
          )
          (3): BertLayer(
            (attention): BertAttention(
              (self): BertSelfAttention(
                (query): Linear(in_features=768, out_features=768, bias=True)
                (key): Linear(in_features=768, out_features=768, bias=True)
                (value): Linear(in_features=768, out_features=768, bias=True)
                (dropout): Dropout(p=0.1, inplace=False)
              )
              (output): BertSelfOutput(
                (dense): Linear(in_features=768, out_features=768, bias=True)
                (LayerNorm): LayerNorm((768,), eps=1e-12, elementwise_affine=True)
                (dropout): Dropout(p=0.1, inplace=False)
              )
            )
            (intermediate): BertIntermediate(
              (dense): Linear(in_features=768, out_features=3072, bias=True)
              (intermediate_act_fn): GELUActivation()
            )
            (output): BertOutput(
              (dense): Linear(in_features=3072, out_features=768, bias=True)
              (LayerNorm): LayerNorm((768,), eps=1e-12, elementwise_affine=True)
              (dropout): Dropout(p=0.1, inplace=False)
            )
          )
          (4): BertLayer(
            (attention): BertAttention(
              (self): BertSelfAttention(
                (query): Linear(in_features=768, out_features=768, bias=True)
                (key): Linear(in_features=768, out_features=768, bias=True)
                (value): Linear(in_features=768, out_features=768, bias=True)
                (dropout): Dropout(p=0.1, inplace=False)
              )
              (output): BertSelfOutput(
                (dense): Linear(in_features=768, out_features=768, bias=True)
                (LayerNorm): LayerNorm((768,), eps=1e-12, elementwise_affine=True)
                (dropout): Dropout(p=0.1, inplace=False)
              )
            )
            (intermediate): BertIntermediate(
              (dense): Linear(in_features=768, out_features=3072, bias=True)
              (intermediate_act_fn): GELUActivation()
            )
            (output): BertOutput(
              (dense): Linear(in_features=3072, out_features=768, bias=True)
              (LayerNorm): LayerNorm((768,), eps=1e-12, elementwise_affine=True)
              (dropout): Dropout(p=0.1, inplace=False)
            )
          )
          (5): BertLayer(
            (attention): BertAttention(
              (self): BertSelfAttention(
                (query): Linear(in_features=768, out_features=768, bias=True)
                (key): Linear(in_features=768, out_features=768, bias=True)
                (value): Linear(in_features=768, out_features=768, bias=True)
                (dropout): Dropout(p=0.1, inplace=False)
              )
              (output): BertSelfOutput(
                (dense): Linear(in_features=768, out_features=768, bias=True)
                (LayerNorm): LayerNorm((768,), eps=1e-12, elementwise_affine=True)
                (dropout): Dropout(p=0.1, inplace=False)
              )
            )
            (intermediate): BertIntermediate(
              (dense): Linear(in_features=768, out_features=3072, bias=True)
              (intermediate_act_fn): GELUActivation()
            )
            (output): BertOutput(
              (dense): Linear(in_features=3072, out_features=768, bias=True)
              (LayerNorm): LayerNorm((768,), eps=1e-12, elementwise_affine=True)
              (dropout): Dropout(p=0.1, inplace=False)
            )
          )
          (6): BertLayer(
            (attention): BertAttention(
              (self): BertSelfAttention(
                (query): Linear(in_features=768, out_features=768, bias=True)
                (key): Linear(in_features=768, out_features=768, bias=True)
                (value): Linear(in_features=768, out_features=768, bias=True)
                (dropout): Dropout(p=0.1, inplace=False)
              )
              (output): BertSelfOutput(
                (dense): Linear(in_features=768, out_features=768, bias=True)
                (LayerNorm): LayerNorm((768,), eps=1e-12, elementwise_affine=True)
                (dropout): Dropout(p=0.1, inplace=False)
              )
            )
            (intermediate): BertIntermediate(
              (dense): Linear(in_features=768, out_features=3072, bias=True)
              (intermediate_act_fn): GELUActivation()
            )
            (output): BertOutput(
              (dense): Linear(in_features=3072, out_features=768, bias=True)
              (LayerNorm): LayerNorm((768,), eps=1e-12, elementwise_affine=True)
              (dropout): Dropout(p=0.1, inplace=False)
            )
          )
          (7): BertLayer(
            (attention): BertAttention(
              (self): BertSelfAttention(
                (query): Linear(in_features=768, out_features=768, bias=True)
                (key): Linear(in_features=768, out_features=768, bias=True)
                (value): Linear(in_features=768, out_features=768, bias=True)
                (dropout): Dropout(p=0.1, inplace=False)
              )
              (output): BertSelfOutput(
                (dense): Linear(in_features=768, out_features=768, bias=True)
                (LayerNorm): LayerNorm((768,), eps=1e-12, elementwise_affine=True)
                (dropout): Dropout(p=0.1, inplace=False)
              )
            )
            (intermediate): BertIntermediate(
              (dense): Linear(in_features=768, out_features=3072, bias=True)
              (intermediate_act_fn): GELUActivation()
            )
            (output): BertOutput(
              (dense): Linear(in_features=3072, out_features=768, bias=True)
              (LayerNorm): LayerNorm((768,), eps=1e-12, elementwise_affine=True)
              (dropout): Dropout(p=0.1, inplace=False)
            )
          )
          (8): BertLayer(
            (attention): BertAttention(
              (self): BertSelfAttention(
                (query): Linear(in_features=768, out_features=768, bias=True)
                (key): Linear(in_features=768, out_features=768, bias=True)
                (value): Linear(in_features=768, out_features=768, bias=True)
                (dropout): Dropout(p=0.1, inplace=False)
              )
              (output): BertSelfOutput(
                (dense): Linear(in_features=768, out_features=768, bias=True)
                (LayerNorm): LayerNorm((768,), eps=1e-12, elementwise_affine=True)
                (dropout): Dropout(p=0.1, inplace=False)
              )
            )
            (intermediate): BertIntermediate(
              (dense): Linear(in_features=768, out_features=3072, bias=True)
              (intermediate_act_fn): GELUActivation()
            )
            (output): BertOutput(
              (dense): Linear(in_features=3072, out_features=768, bias=True)
              (LayerNorm): LayerNorm((768,), eps=1e-12, elementwise_affine=True)
              (dropout): Dropout(p=0.1, inplace=False)
            )
          )
          (9): BertLayer(
            (attention): BertAttention(
              (self): BertSelfAttention(
                (query): Linear(in_features=768, out_features=768, bias=True)
                (key): Linear(in_features=768, out_features=768, bias=True)
                (value): Linear(in_features=768, out_features=768, bias=True)
                (dropout): Dropout(p=0.1, inplace=False)
              )
              (output): BertSelfOutput(
                (dense): Linear(in_features=768, out_features=768, bias=True)
                (LayerNorm): LayerNorm((768,), eps=1e-12, elementwise_affine=True)
                (dropout): Dropout(p=0.1, inplace=False)
              )
            )
            (intermediate): BertIntermediate(
              (dense): Linear(in_features=768, out_features=3072, bias=True)
              (intermediate_act_fn): GELUActivation()
            )
            (output): BertOutput(
              (dense): Linear(in_features=3072, out_features=768, bias=True)
              (LayerNorm): LayerNorm((768,), eps=1e-12, elementwise_affine=True)
              (dropout): Dropout(p=0.1, inplace=False)
            )
          )
          (10): BertLayer(
            (attention): BertAttention(
              (self): BertSelfAttention(
                (query): Linear(in_features=768, out_features=768, bias=True)
                (key): Linear(in_features=768, out_features=768, bias=True)
                (value): Linear(in_features=768, out_features=768, bias=True)
                (dropout): Dropout(p=0.1, inplace=False)
              )
              (output): BertSelfOutput(
                (dense): Linear(in_features=768, out_features=768, bias=True)
                (LayerNorm): LayerNorm((768,), eps=1e-12, elementwise_affine=True)
                (dropout): Dropout(p=0.1, inplace=False)
              )
            )
            (intermediate): BertIntermediate(
              (dense): Linear(in_features=768, out_features=3072, bias=True)
              (intermediate_act_fn): GELUActivation()
            )
            (output): BertOutput(
              (dense): Linear(in_features=3072, out_features=768, bias=True)
              (LayerNorm): LayerNorm((768,), eps=1e-12, elementwise_affine=True)
              (dropout): Dropout(p=0.1, inplace=False)
            )
          )
          (11): BertLayer(
            (attention): BertAttention(
              (self): BertSelfAttention(
                (query): Linear(in_features=768, out_features=768, bias=True)
                (key): Linear(in_features=768, out_features=768, bias=True)
                (value): Linear(in_features=768, out_features=768, bias=True)
                (dropout): Dropout(p=0.1, inplace=False)
              )
              (output): BertSelfOutput(
                (dense): Linear(in_features=768, out_features=768, bias=True)
                (LayerNorm): LayerNorm((768,), eps=1e-12, elementwise_affine=True)
                (dropout): Dropout(p=0.1, inplace=False)
              )
            )
            (intermediate): BertIntermediate(
              (dense): Linear(in_features=768, out_features=3072, bias=True)
              (intermediate_act_fn): GELUActivation()
            )
            (output): BertOutput(
              (dense): Linear(in_features=3072, out_features=768, bias=True)
              (LayerNorm): LayerNorm((768,), eps=1e-12, elementwise_affine=True)
              (dropout): Dropout(p=0.1, inplace=False)
            )
          )
        )
      )
      (pooler): BertPooler(
        (dense): Linear(in_features=768, out_features=768, bias=True)
        (activation): Tanh()
      )
    )
  )
  (decoder): SymphonyNet(
    (wEvte): Embedding(1125, 512)
    (wTrke): Embedding(44, 512)
    (wDure): Embedding(36, 512)
    (wRpe): Embedding(199, 512)
    (wMpe): Embedding(5361, 512)
    (drop): Dropout(p=0.1, inplace=False)
    (ln_f): LayerNorm((512,), eps=1e-06, elementwise_affine=True)
    (decoder_model): TransformerDecoder(
      (layers): ModuleList(
        (0): TransformerDecoderLayer(
          (self_attention): AttentionLayer(
            (inner_attention): CausalLinearAttention(
              (feature_map): ActivationFunctionFeatureMap()
            )
            (query_projection): Linear(in_features=512, out_features=512, bias=True)
            (key_projection): Linear(in_features=512, out_features=512, bias=True)
            (value_projection): Linear(in_features=512, out_features=512, bias=True)
            (out_projection): Linear(in_features=512, out_features=512, bias=True)
          )
          (cross_attention): AttentionLayer(
            (inner_attention): FullAttention(
              (dropout): Dropout(p=0.1, inplace=False)
            )
            (query_projection): Linear(in_features=512, out_features=512, bias=True)
            (key_projection): Linear(in_features=512, out_features=512, bias=True)
            (value_projection): Linear(in_features=512, out_features=512, bias=True)
            (out_projection): Linear(in_features=512, out_features=512, bias=True)
          )
          (linear1): Linear(in_features=512, out_features=2048, bias=True)
          (linear2): Linear(in_features=2048, out_features=512, bias=True)
          (norm1): LayerNorm((512,), eps=1e-05, elementwise_affine=True)
          (norm2): LayerNorm((512,), eps=1e-05, elementwise_affine=True)
          (norm3): LayerNorm((512,), eps=1e-05, elementwise_affine=True)
          (dropout): Dropout(p=0.1, inplace=False)
        )
        (1): TransformerDecoderLayer(
          (self_attention): AttentionLayer(
            (inner_attention): CausalLinearAttention(
              (feature_map): ActivationFunctionFeatureMap()
            )
            (query_projection): Linear(in_features=512, out_features=512, bias=True)
            (key_projection): Linear(in_features=512, out_features=512, bias=True)
            (value_projection): Linear(in_features=512, out_features=512, bias=True)
            (out_projection): Linear(in_features=512, out_features=512, bias=True)
          )
          (cross_attention): AttentionLayer(
            (inner_attention): FullAttention(
              (dropout): Dropout(p=0.1, inplace=False)
            )
            (query_projection): Linear(in_features=512, out_features=512, bias=True)
            (key_projection): Linear(in_features=512, out_features=512, bias=True)
            (value_projection): Linear(in_features=512, out_features=512, bias=True)
            (out_projection): Linear(in_features=512, out_features=512, bias=True)
          )
          (linear1): Linear(in_features=512, out_features=2048, bias=True)
          (linear2): Linear(in_features=2048, out_features=512, bias=True)
          (norm1): LayerNorm((512,), eps=1e-05, elementwise_affine=True)
          (norm2): LayerNorm((512,), eps=1e-05, elementwise_affine=True)
          (norm3): LayerNorm((512,), eps=1e-05, elementwise_affine=True)
          (dropout): Dropout(p=0.1, inplace=False)
        )
        (2): TransformerDecoderLayer(
          (self_attention): AttentionLayer(
            (inner_attention): CausalLinearAttention(
              (feature_map): ActivationFunctionFeatureMap()
            )
            (query_projection): Linear(in_features=512, out_features=512, bias=True)
            (key_projection): Linear(in_features=512, out_features=512, bias=True)
            (value_projection): Linear(in_features=512, out_features=512, bias=True)
            (out_projection): Linear(in_features=512, out_features=512, bias=True)
          )
          (cross_attention): AttentionLayer(
            (inner_attention): FullAttention(
              (dropout): Dropout(p=0.1, inplace=False)
            )
            (query_projection): Linear(in_features=512, out_features=512, bias=True)
            (key_projection): Linear(in_features=512, out_features=512, bias=True)
            (value_projection): Linear(in_features=512, out_features=512, bias=True)
            (out_projection): Linear(in_features=512, out_features=512, bias=True)
          )
          (linear1): Linear(in_features=512, out_features=2048, bias=True)
          (linear2): Linear(in_features=2048, out_features=512, bias=True)
          (norm1): LayerNorm((512,), eps=1e-05, elementwise_affine=True)
          (norm2): LayerNorm((512,), eps=1e-05, elementwise_affine=True)
          (norm3): LayerNorm((512,), eps=1e-05, elementwise_affine=True)
          (dropout): Dropout(p=0.1, inplace=False)
        )
        (3): TransformerDecoderLayer(
          (self_attention): AttentionLayer(
            (inner_attention): CausalLinearAttention(
              (feature_map): ActivationFunctionFeatureMap()
            )
            (query_projection): Linear(in_features=512, out_features=512, bias=True)
            (key_projection): Linear(in_features=512, out_features=512, bias=True)
            (value_projection): Linear(in_features=512, out_features=512, bias=True)
            (out_projection): Linear(in_features=512, out_features=512, bias=True)
          )
          (cross_attention): AttentionLayer(
            (inner_attention): FullAttention(
              (dropout): Dropout(p=0.1, inplace=False)
            )
            (query_projection): Linear(in_features=512, out_features=512, bias=True)
            (key_projection): Linear(in_features=512, out_features=512, bias=True)
            (value_projection): Linear(in_features=512, out_features=512, bias=True)
            (out_projection): Linear(in_features=512, out_features=512, bias=True)
          )
          (linear1): Linear(in_features=512, out_features=2048, bias=True)
          (linear2): Linear(in_features=2048, out_features=512, bias=True)
          (norm1): LayerNorm((512,), eps=1e-05, elementwise_affine=True)
          (norm2): LayerNorm((512,), eps=1e-05, elementwise_affine=True)
          (norm3): LayerNorm((512,), eps=1e-05, elementwise_affine=True)
          (dropout): Dropout(p=0.1, inplace=False)
        )
        (4): TransformerDecoderLayer(
          (self_attention): AttentionLayer(
            (inner_attention): CausalLinearAttention(
              (feature_map): ActivationFunctionFeatureMap()
            )
            (query_projection): Linear(in_features=512, out_features=512, bias=True)
            (key_projection): Linear(in_features=512, out_features=512, bias=True)
            (value_projection): Linear(in_features=512, out_features=512, bias=True)
            (out_projection): Linear(in_features=512, out_features=512, bias=True)
          )
          (cross_attention): AttentionLayer(
            (inner_attention): FullAttention(
              (dropout): Dropout(p=0.1, inplace=False)
            )
            (query_projection): Linear(in_features=512, out_features=512, bias=True)
            (key_projection): Linear(in_features=512, out_features=512, bias=True)
            (value_projection): Linear(in_features=512, out_features=512, bias=True)
            (out_projection): Linear(in_features=512, out_features=512, bias=True)
          )
          (linear1): Linear(in_features=512, out_features=2048, bias=True)
          (linear2): Linear(in_features=2048, out_features=512, bias=True)
          (norm1): LayerNorm((512,), eps=1e-05, elementwise_affine=True)
          (norm2): LayerNorm((512,), eps=1e-05, elementwise_affine=True)
          (norm3): LayerNorm((512,), eps=1e-05, elementwise_affine=True)
          (dropout): Dropout(p=0.1, inplace=False)
        )
        (5): TransformerDecoderLayer(
          (self_attention): AttentionLayer(
            (inner_attention): CausalLinearAttention(
              (feature_map): ActivationFunctionFeatureMap()
            )
            (query_projection): Linear(in_features=512, out_features=512, bias=True)
            (key_projection): Linear(in_features=512, out_features=512, bias=True)
            (value_projection): Linear(in_features=512, out_features=512, bias=True)
            (out_projection): Linear(in_features=512, out_features=512, bias=True)
          )
          (cross_attention): AttentionLayer(
            (inner_attention): FullAttention(
              (dropout): Dropout(p=0.1, inplace=False)
            )
            (query_projection): Linear(in_features=512, out_features=512, bias=True)
            (key_projection): Linear(in_features=512, out_features=512, bias=True)
            (value_projection): Linear(in_features=512, out_features=512, bias=True)
            (out_projection): Linear(in_features=512, out_features=512, bias=True)
          )
          (linear1): Linear(in_features=512, out_features=2048, bias=True)
          (linear2): Linear(in_features=2048, out_features=512, bias=True)
          (norm1): LayerNorm((512,), eps=1e-05, elementwise_affine=True)
          (norm2): LayerNorm((512,), eps=1e-05, elementwise_affine=True)
          (norm3): LayerNorm((512,), eps=1e-05, elementwise_affine=True)
          (dropout): Dropout(p=0.1, inplace=False)
        )
        (6): TransformerDecoderLayer(
          (self_attention): AttentionLayer(
            (inner_attention): CausalLinearAttention(
              (feature_map): ActivationFunctionFeatureMap()
            )
            (query_projection): Linear(in_features=512, out_features=512, bias=True)
            (key_projection): Linear(in_features=512, out_features=512, bias=True)
            (value_projection): Linear(in_features=512, out_features=512, bias=True)
            (out_projection): Linear(in_features=512, out_features=512, bias=True)
          )
          (cross_attention): AttentionLayer(
            (inner_attention): FullAttention(
              (dropout): Dropout(p=0.1, inplace=False)
            )
            (query_projection): Linear(in_features=512, out_features=512, bias=True)
            (key_projection): Linear(in_features=512, out_features=512, bias=True)
            (value_projection): Linear(in_features=512, out_features=512, bias=True)
            (out_projection): Linear(in_features=512, out_features=512, bias=True)
          )
          (linear1): Linear(in_features=512, out_features=2048, bias=True)
          (linear2): Linear(in_features=2048, out_features=512, bias=True)
          (norm1): LayerNorm((512,), eps=1e-05, elementwise_affine=True)
          (norm2): LayerNorm((512,), eps=1e-05, elementwise_affine=True)
          (norm3): LayerNorm((512,), eps=1e-05, elementwise_affine=True)
          (dropout): Dropout(p=0.1, inplace=False)
        )
        (7): TransformerDecoderLayer(
          (self_attention): AttentionLayer(
            (inner_attention): CausalLinearAttention(
              (feature_map): ActivationFunctionFeatureMap()
            )
            (query_projection): Linear(in_features=512, out_features=512, bias=True)
            (key_projection): Linear(in_features=512, out_features=512, bias=True)
            (value_projection): Linear(in_features=512, out_features=512, bias=True)
            (out_projection): Linear(in_features=512, out_features=512, bias=True)
          )
          (cross_attention): AttentionLayer(
            (inner_attention): FullAttention(
              (dropout): Dropout(p=0.1, inplace=False)
            )
            (query_projection): Linear(in_features=512, out_features=512, bias=True)
            (key_projection): Linear(in_features=512, out_features=512, bias=True)
            (value_projection): Linear(in_features=512, out_features=512, bias=True)
            (out_projection): Linear(in_features=512, out_features=512, bias=True)
          )
          (linear1): Linear(in_features=512, out_features=2048, bias=True)
          (linear2): Linear(in_features=2048, out_features=512, bias=True)
          (norm1): LayerNorm((512,), eps=1e-05, elementwise_affine=True)
          (norm2): LayerNorm((512,), eps=1e-05, elementwise_affine=True)
          (norm3): LayerNorm((512,), eps=1e-05, elementwise_affine=True)
          (dropout): Dropout(p=0.1, inplace=False)
        )
        (8): TransformerDecoderLayer(
          (self_attention): AttentionLayer(
            (inner_attention): CausalLinearAttention(
              (feature_map): ActivationFunctionFeatureMap()
            )
            (query_projection): Linear(in_features=512, out_features=512, bias=True)
            (key_projection): Linear(in_features=512, out_features=512, bias=True)
            (value_projection): Linear(in_features=512, out_features=512, bias=True)
            (out_projection): Linear(in_features=512, out_features=512, bias=True)
          )
          (cross_attention): AttentionLayer(
            (inner_attention): FullAttention(
              (dropout): Dropout(p=0.1, inplace=False)
            )
            (query_projection): Linear(in_features=512, out_features=512, bias=True)
            (key_projection): Linear(in_features=512, out_features=512, bias=True)
            (value_projection): Linear(in_features=512, out_features=512, bias=True)
            (out_projection): Linear(in_features=512, out_features=512, bias=True)
          )
          (linear1): Linear(in_features=512, out_features=2048, bias=True)
          (linear2): Linear(in_features=2048, out_features=512, bias=True)
          (norm1): LayerNorm((512,), eps=1e-05, elementwise_affine=True)
          (norm2): LayerNorm((512,), eps=1e-05, elementwise_affine=True)
          (norm3): LayerNorm((512,), eps=1e-05, elementwise_affine=True)
          (dropout): Dropout(p=0.1, inplace=False)
        )
        (9): TransformerDecoderLayer(
          (self_attention): AttentionLayer(
            (inner_attention): CausalLinearAttention(
              (feature_map): ActivationFunctionFeatureMap()
            )
            (query_projection): Linear(in_features=512, out_features=512, bias=True)
            (key_projection): Linear(in_features=512, out_features=512, bias=True)
            (value_projection): Linear(in_features=512, out_features=512, bias=True)
            (out_projection): Linear(in_features=512, out_features=512, bias=True)
          )
          (cross_attention): AttentionLayer(
            (inner_attention): FullAttention(
              (dropout): Dropout(p=0.1, inplace=False)
            )
            (query_projection): Linear(in_features=512, out_features=512, bias=True)
            (key_projection): Linear(in_features=512, out_features=512, bias=True)
            (value_projection): Linear(in_features=512, out_features=512, bias=True)
            (out_projection): Linear(in_features=512, out_features=512, bias=True)
          )
          (linear1): Linear(in_features=512, out_features=2048, bias=True)
          (linear2): Linear(in_features=2048, out_features=512, bias=True)
          (norm1): LayerNorm((512,), eps=1e-05, elementwise_affine=True)
          (norm2): LayerNorm((512,), eps=1e-05, elementwise_affine=True)
          (norm3): LayerNorm((512,), eps=1e-05, elementwise_affine=True)
          (dropout): Dropout(p=0.1, inplace=False)
        )
        (10): TransformerDecoderLayer(
          (self_attention): AttentionLayer(
            (inner_attention): CausalLinearAttention(
              (feature_map): ActivationFunctionFeatureMap()
            )
            (query_projection): Linear(in_features=512, out_features=512, bias=True)
            (key_projection): Linear(in_features=512, out_features=512, bias=True)
            (value_projection): Linear(in_features=512, out_features=512, bias=True)
            (out_projection): Linear(in_features=512, out_features=512, bias=True)
          )
          (cross_attention): AttentionLayer(
            (inner_attention): FullAttention(
              (dropout): Dropout(p=0.1, inplace=False)
            )
            (query_projection): Linear(in_features=512, out_features=512, bias=True)
            (key_projection): Linear(in_features=512, out_features=512, bias=True)
            (value_projection): Linear(in_features=512, out_features=512, bias=True)
            (out_projection): Linear(in_features=512, out_features=512, bias=True)
          )
          (linear1): Linear(in_features=512, out_features=2048, bias=True)
          (linear2): Linear(in_features=2048, out_features=512, bias=True)
          (norm1): LayerNorm((512,), eps=1e-05, elementwise_affine=True)
          (norm2): LayerNorm((512,), eps=1e-05, elementwise_affine=True)
          (norm3): LayerNorm((512,), eps=1e-05, elementwise_affine=True)
          (dropout): Dropout(p=0.1, inplace=False)
        )
        (11): TransformerDecoderLayer(
          (self_attention): AttentionLayer(
            (inner_attention): CausalLinearAttention(
              (feature_map): ActivationFunctionFeatureMap()
            )
            (query_projection): Linear(in_features=512, out_features=512, bias=True)
            (key_projection): Linear(in_features=512, out_features=512, bias=True)
            (value_projection): Linear(in_features=512, out_features=512, bias=True)
            (out_projection): Linear(in_features=512, out_features=512, bias=True)
          )
          (cross_attention): AttentionLayer(
            (inner_attention): FullAttention(
              (dropout): Dropout(p=0.1, inplace=False)
            )
            (query_projection): Linear(in_features=512, out_features=512, bias=True)
            (key_projection): Linear(in_features=512, out_features=512, bias=True)
            (value_projection): Linear(in_features=512, out_features=512, bias=True)
            (out_projection): Linear(in_features=512, out_features=512, bias=True)
          )
          (linear1): Linear(in_features=512, out_features=2048, bias=True)
          (linear2): Linear(in_features=2048, out_features=512, bias=True)
          (norm1): LayerNorm((512,), eps=1e-05, elementwise_affine=True)
          (norm2): LayerNorm((512,), eps=1e-05, elementwise_affine=True)
          (norm3): LayerNorm((512,), eps=1e-05, elementwise_affine=True)
          (dropout): Dropout(p=0.1, inplace=False)
        )
      )
      (norm): LayerNorm((512,), eps=1e-05, elementwise_affine=True)
    )
    (proj_evt): Linear(in_features=512, out_features=1125, bias=False)
    (proj_dur): Linear(in_features=512, out_features=36, bias=False)
    (proj_trk): Linear(in_features=512, out_features=44, bias=False)
    (proj_ins): Linear(in_features=512, out_features=133, bias=False)
  )
  (linear): Linear(in_features=768, out_features=512, bias=True)
)
2023-06-27 18:47:23 | INFO | fairseq_cli.train | task: text2music (VIVYData)
2023-06-27 18:47:23 | INFO | fairseq_cli.train | model: vivy_train (VIVYNet)
2023-06-27 18:47:23 | INFO | fairseq_cli.train | criterion: nll_loss (ModelCriterion)
2023-06-27 18:47:23 | INFO | fairseq_cli.train | num. model params: 232846336 (num. trained: 42385408)
2023-06-27 18:47:23 | INFO | fairseq.trainer | detected shared parameter: decoder.proj_evt.bias <- decoder.proj_dur.bias
…
