…
use_bmuf=False, use_old_adam=False, user_dir='src/fairseq/linear_transformer', valid_subset='valid', validate_after_updates=0, validate_interval=1, validate_interval_updates=0, warmup_updates=5000, weight_decay=0.01, zero_sharding='none')
2023-03-21 20:04:32 | INFO | fairseq.tasks.language_modeling | dictionary: 247 types
2023-03-21 20:04:32 | INFO | fairseq.data.data_utils | loaded 166 examples from: data/model_spec/linear_4096_chord_bpe_hardloss1/bin/valid
2023-03-21 20:04:33 | INFO | fairseq_cli.train | LinearTransformerMultiHeadLM(
  (decoder): LinearTransformerMultiHeadDecoder(
    (wEvte): Embedding(237, 512)
    (wTrke): Embedding(36, 512)
    (wDure): Embedding(36, 512)
    (wRpe): Embedding(87, 512)
    (wMpe): Embedding(312, 512)
    (drop): Dropout(p=0.1, inplace=False)
    (ln_f): LayerNorm((512,), eps=1e-06, elementwise_affine=True)
    (model): TransformerEncoder(
      (layers): ModuleList(
        (0): TransformerEncoderLayer(
          (attention): AttentionLayer(
            (inner_attention): CausalLinearAttention(
              (feature_map): ActivationFunctionFeatureMap()
            )
            (query_projection): Linear(in_features=512, out_features=512, bias=True)
            (key_projection): Linear(in_features=512, out_features=512, bias=True)
            (value_projection): Linear(in_features=512, out_features=512, bias=True)
            (out_projection): Linear(in_features=512, out_features=512, bias=True)
          )
          (linear1): Linear(in_features=512, out_features=2048, bias=True)
          (linear2): Linear(in_features=2048, out_features=512, bias=True)
          (norm1): LayerNorm((512,), eps=1e-05, elementwise_affine=True)
          (norm2): LayerNorm((512,), eps=1e-05, elementwise_affine=True)
          (dropout): Dropout(p=0.1, inplace=False)
        )
        (1): TransformerEncoderLayer(
          (attention): AttentionLayer(
            (inner_attention): CausalLinearAttention(
              (feature_map): ActivationFunctionFeatureMap()
            )
            (query_projection): Linear(in_features=512, out_features=512, bias=True)
            (key_projection): Linear(in_features=512, out_features=512, bias=True)
            (value_projection): Linear(in_features=512, out_features=512, bias=True)
            (out_projection): Linear(in_features=512, out_features=512, bias=True)
          )
          (linear1): Linear(in_features=512, out_features=2048, bias=True)
          (linear2): Linear(in_features=2048, out_features=512, bias=True)
          (norm1): LayerNorm((512,), eps=1e-05, elementwise_affine=True)
          (norm2): LayerNorm((512,), eps=1e-05, elementwise_affine=True)
          (dropout): Dropout(p=0.1, inplace=False)
        )
        (2): TransformerEncoderLayer(
          (attention): AttentionLayer(
            (inner_attention): CausalLinearAttention(
              (feature_map): ActivationFunctionFeatureMap()
            )
            (query_projection): Linear(in_features=512, out_features=512, bias=True)
            (key_projection): Linear(in_features=512, out_features=512, bias=True)
            (value_projection): Linear(in_features=512, out_features=512, bias=True)
            (out_projection): Linear(in_features=512, out_features=512, bias=True)
          )
          (linear1): Linear(in_features=512, out_features=2048, bias=True)
          (linear2): Linear(in_features=2048, out_features=512, bias=True)
          (norm1): LayerNorm((512,), eps=1e-05, elementwise_affine=True)
          (norm2): LayerNorm((512,), eps=1e-05, elementwise_affine=True)
          (dropout): Dropout(p=0.1, inplace=False)
        )
        (3): TransformerEncoderLayer(
          (attention): AttentionLayer(
            (inner_attention): CausalLinearAttention(
              (feature_map): ActivationFunctionFeatureMap()
            )
            (query_projection): Linear(in_features=512, out_features=512, bias=True)
            (key_projection): Linear(in_features=512, out_features=512, bias=True)
            (value_projection): Linear(in_features=512, out_features=512, bias=True)
            (out_projection): Linear(in_features=512, out_features=512, bias=True)
          )
          (linear1): Linear(in_features=512, out_features=2048, bias=True)
          (linear2): Linear(in_features=2048, out_features=512, bias=True)
          (norm1): LayerNorm((512,), eps=1e-05, elementwise_affine=True)
          (norm2): LayerNorm((512,), eps=1e-05, elementwise_affine=True)
          (dropout): Dropout(p=0.1, inplace=False)
        )
        (4): TransformerEncoderLayer(
          (attention): AttentionLayer(
            (inner_attention): CausalLinearAttention(
              (feature_map): ActivationFunctionFeatureMap()
            )
            (query_projection): Linear(in_features=512, out_features=512, bias=True)
            (key_projection): Linear(in_features=512, out_features=512, bias=True)
            (value_projection): Linear(in_features=512, out_features=512, bias=True)
            (out_projection): Linear(in_features=512, out_features=512, bias=True)
          )
          (linear1): Linear(in_features=512, out_features=2048, bias=True)
          (linear2): Linear(in_features=2048, out_features=512, bias=True)
          (norm1): LayerNorm((512,), eps=1e-05, elementwise_affine=True)
          (norm2): LayerNorm((512,), eps=1e-05, elementwise_affine=True)
          (dropout): Dropout(p=0.1, inplace=False)
        )
        (5): TransformerEncoderLayer(
          (attention): AttentionLayer(
            (inner_attention): CausalLinearAttention(
              (feature_map): ActivationFunctionFeatureMap()
            )
            (query_projection): Linear(in_features=512, out_features=512, bias=True)
            (key_projection): Linear(in_features=512, out_features=512, bias=True)
            (value_projection): Linear(in_features=512, out_features=512, bias=True)
            (out_projection): Linear(in_features=512, out_features=512, bias=True)
          )
          (linear1): Linear(in_features=512, out_features=2048, bias=True)
          (linear2): Linear(in_features=2048, out_features=512, bias=True)
          (norm1): LayerNorm((512,), eps=1e-05, elementwise_affine=True)
          (norm2): LayerNorm((512,), eps=1e-05, elementwise_affine=True)
          (dropout): Dropout(p=0.1, inplace=False)
        )
        (6): TransformerEncoderLayer(
          (attention): AttentionLayer(
            (inner_attention): CausalLinearAttention(
              (feature_map): ActivationFunctionFeatureMap()
            )
            (query_projection): Linear(in_features=512, out_features=512, bias=True)
            (key_projection): Linear(in_features=512, out_features=512, bias=True)
            (value_projection): Linear(in_features=512, out_features=512, bias=True)
            (out_projection): Linear(in_features=512, out_features=512, bias=True)
          )
          (linear1): Linear(in_features=512, out_features=2048, bias=True)
          (linear2): Linear(in_features=2048, out_features=512, bias=True)
          (norm1): LayerNorm((512,), eps=1e-05, elementwise_affine=True)
          (norm2): LayerNorm((512,), eps=1e-05, elementwise_affine=True)
          (dropout): Dropout(p=0.1, inplace=False)
        )
        (7): TransformerEncoderLayer(
          (attention): AttentionLayer(
            (inner_attention): CausalLinearAttention(
              (feature_map): ActivationFunctionFeatureMap()
            )
            (query_projection): Linear(in_features=512, out_features=512, bias=True)
            (key_projection): Linear(in_features=512, out_features=512, bias=True)
            (value_projection): Linear(in_features=512, out_features=512, bias=True)
            (out_projection): Linear(in_features=512, out_features=512, bias=True)
          )
          (linear1): Linear(in_features=512, out_features=2048, bias=True)
          (linear2): Linear(in_features=2048, out_features=512, bias=True)
          (norm1): LayerNorm((512,), eps=1e-05, elementwise_affine=True)
          (norm2): LayerNorm((512,), eps=1e-05, elementwise_affine=True)
          (dropout): Dropout(p=0.1, inplace=False)
        )
        (8): TransformerEncoderLayer(
          (attention): AttentionLayer(
            (inner_attention): CausalLinearAttention(
              (feature_map): ActivationFunctionFeatureMap()
            )
            (query_projection): Linear(in_features=512, out_features=512, bias=True)
            (key_projection): Linear(in_features=512, out_features=512, bias=True)
            (value_projection): Linear(in_features=512, out_features=512, bias=True)
            (out_projection): Linear(in_features=512, out_features=512, bias=True)
          )
          (linear1): Linear(in_features=512, out_features=2048, bias=True)
          (linear2): Linear(in_features=2048, out_features=512, bias=True)
          (norm1): LayerNorm((512,), eps=1e-05, elementwise_affine=True)
          (norm2): LayerNorm((512,), eps=1e-05, elementwise_affine=True)
          (dropout): Dropout(p=0.1, inplace=False)
        )
        (9): TransformerEncoderLayer(
          (attention): AttentionLayer(
            (inner_attention): CausalLinearAttention(
              (feature_map): ActivationFunctionFeatureMap()
            )
            (query_projection): Linear(in_features=512, out_features=512, bias=True)
            (key_projection): Linear(in_features=512, out_features=512, bias=True)
            (value_projection): Linear(in_features=512, out_features=512, bias=True)
            (out_projection): Linear(in_features=512, out_features=512, bias=True)
          )
          (linear1): Linear(in_features=512, out_features=2048, bias=True)
          (linear2): Linear(in_features=2048, out_features=512, bias=True)
          (norm1): LayerNorm((512,), eps=1e-05, elementwise_affine=True)
          (norm2): LayerNorm((512,), eps=1e-05, elementwise_affine=True)
          (dropout): Dropout(p=0.1, inplace=False)
        )
        (10): TransformerEncoderLayer(
          (attention): AttentionLayer(
            (inner_attention): CausalLinearAttention(
              (feature_map): ActivationFunctionFeatureMap()
            )
            (query_projection): Linear(in_features=512, out_features=512, bias=True)
            (key_projection): Linear(in_features=512, out_features=512, bias=True)
            (value_projection): Linear(in_features=512, out_features=512, bias=True)
            (out_projection): Linear(in_features=512, out_features=512, bias=True)
          )
          (linear1): Linear(in_features=512, out_features=2048, bias=True)
          (linear2): Linear(in_features=2048, out_features=512, bias=True)
          (norm1): LayerNorm((512,), eps=1e-05, elementwise_affine=True)
          (norm2): LayerNorm((512,), eps=1e-05, elementwise_affine=True)
          (dropout): Dropout(p=0.1, inplace=False)
        )
        (11): TransformerEncoderLayer(
          (attention): AttentionLayer(
            (inner_attention): CausalLinearAttention(
              (feature_map): ActivationFunctionFeatureMap()
            )
            (query_projection): Linear(in_features=512, out_features=512, bias=True)
            (key_projection): Linear(in_features=512, out_features=512, bias=True)
            (value_projection): Linear(in_features=512, out_features=512, bias=True)
            (out_projection): Linear(in_features=512, out_features=512, bias=True)
          )
          (linear1): Linear(in_features=512, out_features=2048, bias=True)
          (linear2): Linear(in_features=2048, out_features=512, bias=True)
          (norm1): LayerNorm((512,), eps=1e-05, elementwise_affine=True)
          (norm2): LayerNorm((512,), eps=1e-05, elementwise_affine=True)
          (dropout): Dropout(p=0.1, inplace=False)
        )
      )
      (norm): LayerNorm((512,), eps=1e-05, elementwise_affine=True)
    )
    (proj_evt): Linear(in_features=512, out_features=237, bias=False)
    (proj_dur): Linear(in_features=512, out_features=36, bias=False)
    (proj_trk): Linear(in_features=512, out_features=36, bias=False)
    (proj_ins): Linear(in_features=512, out_features=16, bias=False)
  )
)
2023-03-21 20:04:33 | INFO | fairseq_cli.train | task: symphony_modeling (SymphonyModelingTask)
2023-03-21 20:04:33 | INFO | fairseq_cli.train | model: linear_transformer_multi (LinearTransformerMultiHeadLM)
2023-03-21 20:04:33 | INFO | fairseq_cli.train | criterion: multiple_loss (MultiplelossCriterion)
2023-03-21 20:04:33 | INFO | fairseq_cli.train | num. model params: 38359552 (num. trained: 38359552)
…
